MLP/MLP_Simple1.onnx (onnx, 164987 bytes, 4 tensors)

1.weight f4 [50, 784]
00000000: 3ccf 9e3c 4a33 0ebd 0a70 30bc 0d31 ebbc
00000010: 6525 0abb 6ab4 a33c c2e4 46bc c97a a93c
00000020: 72df 073c 5f99 8a3c 48ff 98bc 7bf1 313b
00000030: 1bba 1b3d 70f3 f63c 58fe 923c 25b2 8dbb
00000040: b936 bf3c 76eb 0f3c 0259 213c fca2 49bc
00000050: a971 103c 721b d5bc 4fd9 d4bc 1cc0 283c
00000060: 2df3 09bc ce9f 323c eb78 99bc 15a6 23bc
00000070: 4c07 dc3b 69f1 97bc 829e 213d 28c0 903a
00000080: ed6d 66bc b33d 6dbc 7909 0f3d fb05 24bc
00000090: b83d f3bc a23c 613b d194 733c a6ce 58bc
000000a0: 1206 5abb 8f08 fdbc 03d5 f0bc f87d 42bb
000000b0: 5d17 9bbc 5f39 f3bc 9eb6 82bc ae8b 01bd
000000c0: 36fe abbc 5fa2 40bb 230a 373c 7bcd 83bc
000000d0: e27e ecbc d382 f53c 272a f83c 8889 f4bb
000000e0: d98c b5bc a0ea 6abb d288 93bc 7a23 0b3d
000000f0: 442d c7bc 8d50 0f3c bb99 c33a f16f b83a
00000100: fad5 acbc f3df c9bc 5694 143d 270f ae3c
00000110: 8bf4 1f3c f78e 543c 6e74 943c 77dc cdbb
00000120: 72fc fa3c 4c70 f43c 6bbb ae3c f8f0 b8bc
00000130: 96a5 a33c d425 d6bc b960 773a e7c7 603a
00000140: 8f83 74bc 42e7 03bd 2191 743c 9e7d ae3b
00000150: 8099 923c d6e1 86bc 8199 48bc cb2a f2bc
00000160: 20d9 bf3c 7371 903b 0e92 05bc bbd3 98bc
00000170: 3aef 82bb c3a3 82bc 8a16 a93c 40ee 8cbc
00000180: 92d8 86bc ce28 0dbd d820 eebb 8c64 e23c
00000190: 3878 803c 468d 623b 525d 58bc 6ba7 9e3c
000001a0: 112a fa3c 8b8a d9bc 6b78 1f3d c9ea d4bc
000001b0: 3e3e f6bb 1bf3 e6bb b77d c33a 47df 8cbc
000001c0: 397e 083d 8cbe 063c 8ed3 8dbc 3eff 913c
000001d0: cc52 dfba ae8d a3bc 8cae f839 d5d1 be3c
000001e0: 4c23 223d f2ef 153d adce 113d 039e e3ba
000001f0: 99d9 be3c 7ede 1ebc 71b2 5dbc 30e3 d93a
00000200: 2e5c f1bc 3adf 86bc 668e ea3c 7edc aa3c
00000210: 0c57 25bc 5413 37bb ff4d ba3c a126 64bc
00000220: 45c7 abbc 6569 37bb 6589 903c f9d9 c0bb
00000230: a21a b6bc 6a48 e4bb d1ac 703c 79da 023d
00000240: a748 47bc 12ce 46bc 3fcc 253d 7d73 853c
00000250: fa99 25bc 4224 763b 19b1 24bc 3b09 3c3d
00000260: a8d8 d6bb 72af 9fbc 99cd 473c a510 59bc
00000270: 6824 9e3c 4966 25bb c154 8abc b642 82bc
00000280: 9ceb c3bc 68bb f73b 2cb4 24bd e557 12bd
00000290: d93d 8f3c 474d 6d3c 236c bbbc 38bc aabc
000002a0: c545 b33c c236 263c c6e8 e43c 0abc 63bc
000002b0: c702 a63c d82d 093d 2e13 383c 7974 093c
000002c0: c808 ee3c fced 3a3d 27bd fbba 97b2 183d
000002d0: 5c63 083d 3aaf 1d3c 7691 173d b5db ffbb
000002e0: 8749 1c3c 166c 89bc b738 d83c 1b42 f23c
000002f0: d7c6 bebc f1a8 29bc 9cf6 bbbb 5880 0b3b
00000300: 37da 793c 3e27 923c fbdb b738 8c84 0ebc
00000310: 7253 d13c 5697 51bc 8fc6 1d3d b571 81bc
00000320: 8160 1b3d 833b a23c 683e 053c 8dbd 8e3c
00000330: f072 133d 4c93 57bc 2c6c 3fbc 745e d7bb
00000340: c015 e63c 15e6 9f3c 4f35 8e3c 01d8 913b
00000350: 3490 3d3c 1dec 143d 9395 a23c 8121 3e3c
00000360: f755 c43c 5037 bcbb cd68 973c 396c ec3b
00000370: 6d46 a8bb 03c0 a1bc 73f5 3abb b2d0 0ebd
00000380: 8338 853c 231f d13c c89b e93b ba39 38bc
00000390: 8340 3b3d 81c5 d5bc fc49 023d 1ff2 4b3d
000003a0: faa3 a7bc 386f 253d b7f2 523b 3612 44bc
000003b0: dbc2 b83c d7de 1b3c 0af3 143d ce62 753d
000003c0: ab25 3a3d 5ef8 673b ff04 063a f8c3 033d
000003d0: 97cb 8cbc cdaf ebbc cc19 39bb a762 26bd
000003e0: b607 e63b b458 afbc 9984 0e3c f9f4 0dbd
000003f0: 519c 81bc 470d 633c 367b b13c a849 153d
0.019385926 -0.03471688 -0.0107689 -0.028709913 -0.0021079418 0.019983489 -0.012139501 0.020688431
0.00829302 0.016918836 -0.018676415 0.002715199 0.03801928 0.030145377 0.017943546 -0.004324215
0.023341523 0.008784166 0.009847881 -0.012306925 0.008816161 -0.026014064 -0.025982527 0.010299709
-0.008419794 0.010902358 -0.018734416 -0.0099883275 0.006714737 -0.01854773 0.039457805 0.0011043595
-0.014064294 -0.014480042 0.034921143 -0.0100111915 -0.029692516 0.0034368415 0.014867024 -0.013232863
-0.0033267778 -0.03088787 -0.029398447 -0.0029677134 -0.018932039 -0.029690443 -0.01595622 -0.03162735
-0.02099524 -0.0029393656 0.01117185 -0.016089192 -0.028869096 0.029969608 0.030293537 -0.007462684
-0.022161888 -0.0035845414 -0.018009577 0.03396938 -0.024313577 0.008747232 0.0014923135 0.0014071447
-0.021098126 -0.02464292 0.036274277 0.02124746 0.009762893 0.012973539 0.018121924 -0.006282385
0.030637953 0.029838704 0.021329602 -0.02257584 0.019976418 -0.026141085 0.0009436715 0.00085747096
-0.014923944 -0.032202967 0.01492718 0.0053250333 0.01789546 -0.016465109 -0.012243629 -0.02956142
0.023418963 0.0044080555 -0.008152498 -0.018655648 -0.003995803 -0.015947228 0.02064063 -0.01720345
-0.01646069 -0.034462743 -0.007267099 0.027635835 0.015682325 0.0034569069 -0.013205843 0.01936694
0.030537637 -0.02655532 0.0389332 -0.02599086 -0.007514744 -0.0070480234 0.0014914785 -0.01719631
0.0333235 0.008224141 -0.017312791 0.017821904 -0.0017038225 -0.01996502 0.00047432294 0.023293415
0.039584443 0.036605783 0.035597492 -0.0017365817 0.023297118 -0.009696601 -0.013531313 0.0016623493
-0.0294629 -0.016463865 0.028632354 0.020857092 -0.010091554 -0.0027935104 0.02274227 -0.0139252255
-0.020969043 -0.0027986404 0.01764364 -0.0058853594 -0.022229496 -0.0069666402 0.01468964 0.031946633
-0.012163318 -0.012134092 0.040477987 0.01629042 -0.010107512 0.0037558232 -0.010051989 0.04590724
-0.006556589 -0.019492839 0.012195014 -0.013248597 0.01930447 -0.0025237969 -0.016886117 -0.01590095
-0.023916058 0.0075601824 -0.040210888 -0.035728354 0.017485546 0.014483756 -0.022878712 -0.020841703
0.021883855 0.010144891 0.027943026 -0.0138998125 0.020264996 0.033490986 0.011235042 0.008389586
0.029056922 0.045637116 -0.0019206152 0.03727969 0.03329788 0.009624297 0.037003957 -0.0078081735
0.009539015 -0.016775172 0.026394231 0.029572537 -0.023288174 -0.01035522 -0.0057361852 0.0021286216
0.01524978 0.017840978 8.7670946e-05 -0.008698594 0.025552485 -0.012792429 0.03851944 -0.01580129
0.03793383 0.019803768 0.008132555 0.01742437 0.035998285 -0.013157677 -0.011683505 -0.006572539
0.028086543 0.019518891 0.017359404 0.0044507985 0.011570025 0.036357988 0.019846713 0.011604668
0.023966772 -0.0057438985 0.01848259 0.0072150496 -0.0051353485 -0.019744879 -0.0028527647 -0.034866996
0.016262298 0.025527542 0.0071291663 -0.011244232 0.04571582 -0.026095154 0.03180884 0.04979145
-0.020463932 0.04038927 0.0032188126 -0.011967232 0.022553852 0.009513578 0.036364593 0.05990868
0.04544608 0.003539584 0.0005112439 0.032169312 -0.017186923 -0.028770352 -0.0028244136 -0.040621426
0.007019962 -0.021404602 0.008698606 -0.034657452 -0.015821608 0.013858146 0.021665197 0.036447197

1.bias f4 [50]
00000000: 4a69 2a3d 29cf 1bbe dc17 b23c 8216 103f
00000010: f9cc 81be 5490 923e ef33 ab3e 90bd a93e
00000020: 9e73 9f3f c3c8 49bd 7d78 5ebe a41d bdbc
00000030: 24e2 fe3e d3ae 6c3d e8fa 283e a5b9 1b3f
00000040: 3ac4 153f 066c 92bc b395 f3bd 0225 0ebe
00000050: 743d 273c 4095 10bd 110a f9bd 40f6 213d
00000060: 61e9 0038 379e 4b3b a761 aebd 01c6 61bd
00000070: 4f2e a13e fc6c fbbc b48a 943c 1e05 62bd
00000080: c82a 66bd d99a 313d ee04 d6bd 04a3 b23e
00000090: 80e7 593f fe2c 46be 948e bebd 9a6b 0d3f
000000a0: c96d 83bd 5462 76be 4153 35be e4da 1c3d
000000b0: 79c7 4b3c 1326 fa3e c736 75bd 0e43 af3f
000000c0: acf5 f83c d7b1 49bd
0.041604318 -0.15215744 0.021739893 0.56284344 -0.25351694 0.2862574 0.3343806 0.33152437
1.2457159 -0.049263727 -0.2172565 -0.023085423 0.49781907 0.057783913 0.16501963 0.60830146
0.5850254 -0.017873775 -0.11893787 -0.13881305 0.010207523 -0.035298586 -0.12160123 0.039541483
3.073493e-05 0.0031069645 -0.085147195 -0.055120472 0.31480643 -0.030691616 0.018132545 -0.05518066
-0.056193143 0.043360565 -0.10450159 0.34889996 0.85118866 -0.193531 -0.09304538 0.5524231
-0.06417424 -0.24060947 -0.1770754 0.038294688 0.012437695 0.48857173 -0.059866693 1.3692338
0.030390583 -0.049241867

3.weight f4 [7, 50]
00000000: 5b2e fb3d 9979 4a3d 78c7 f63e b89d 763f
00000010: 007b 39bd be57 2a3f 5379 cc3d 1914 0a3e
00000020: 674c 7d3d cd83 9b3e ea9a 003e a006 58bd
00000030: a0b9 21be 5975 53bd d8d1 813e c943 fbbe
00000040: 1b0d 88bd 58ae 05bd c539 c5bd 8b18 c9be
00000050: 0527 ec3d 1b94 c43e 30b1 e6be 1c05 19be
00000060: b3aa 1bbf a42d 00bd 3c73 06be 894a 98be
00000070: 96fd dabe 9d28 d83e 975c 1c3f ea96 82bb
00000080: 09bb bcbe 0a9e d43e 2aa1 a6be 25b0 2bbe
00000090: d191 c73d 225c d4be 3802 05be 0b0e 583d
000000a0: bc66 73bc 271b fbba d0e7 35bf d754 613e
000000b0: 1e63 943e 8246 f8bd 839a 4e3d 78ae 8cbe
000000c0: 5994 653f 75e4 13be 4ee4 afbe b3dc 523e
000000d0: e046 8bbd ef01 8ebe a531 aa3e c3f3 e83c
000000e0: 1a1e a63e ee9f 9ebd 6808 0dbf 95e5 60be
000000f0: cd4f 80be a3cd 20be ea08 3c3d edf3 1b3e
00000100: 3f4e ed3e b497 923e db77 4abe 9e46 7fbe
00000110: 1e51 9ebe 6771 de3e 7677 88bc 744a 18be
00000120: 7583 a73d a46b cb3d 0de8 3d3d 8515 34be
00000130: cc35 043f c2df 2d3d 79df e43e e2b3 b5be
00000140: faf2 223d da6d d0be cea4 62be 4bde 90be
00000150: 1938 113f 8f9e edbe 8531 f93d 9023 32bd
00000160: b3b9 adbe d8e1 6dbd 9770 023f a63f cabe
00000170: b4bd 973e 9772 6fbe 901d 4cbe 4aee 393d
00000180: 841b 213e 8734 a2be cf20 83be d181 3c3b
00000190: ffd6 923e 9a08 2f3e dba8 89be f685 d7be
000001a0: ab5f 823e ddc6 9bbd f37b 013f 5348 29be
000001b0: 769f c3be 814c 93be 3a7c bb3e a2cc 183d
000001c0: c39a dabd 9b4a e13d 127c dabe 8de1 00bf
000001d0: b626 bbbd b835 733a 9262 fb3e 5330 6fbb
000001e0: 237c a3bc 6c83 0ebf 3896 4cbd 8474 9f3e
000001f0: f228 bdbe 7824 8f3e 4633 1bbe 4967 253e
00000200: 68ef 4d3f 4af5 5bbe 3e99 66be 8824 373e
00000210: 0ad7 e43e ac0c ed3e c817 c6be bdab 063e
00000220: 1cf0 92be 6ff9 443f f0c0 4dba 9de5 073d
00000230: bc40 f8be 709b 33bf 225a d2be 6bab 03bd
00000240: c363 ed3d 959f fbbb 022e d43d 2f4d babe
00000250: 7e78 483e 9f73 0bbe 1d77 20be 2be4 7cbe
00000260: 85a1 3f3e 4df2 053d 8d5d 6abe ca4e 6fbe
00000270: 8fed dbbe 897e aebb e5bd cdbe 8da8 4cbe
00000280: 076d cbbc 001b 83bd 2c20 96bc 0dab 453c
00000290: f973 82be af21 a8be d557 0cbe f2fd 8f3e
000002a0: 0521 75be bc84 4f3e 0b3b ec3c 6891 9f3e
000002b0: 151e 4c3f 4952 07be 06ca 0c3e ed76 48be
000002c0: 8342 8ebe 4be7 e5bd 6d72 4a3d 05ac 76be
000002d0: 817d 8abe 6091 1c3e b2c0 5fbe 6a33 4bbd
000002e0: a2d3 40be 62c3 b9be 29d7 5fbe 8a91 e5be
000002f0: 7d3d 90bc c205 24be 1f3d 59bd 91d9 543f
00000300: 5d04 543f b17a a13e 6e10 6abe b288 2abc
00000310: 7cb4 983e 22e6 9cbe 2efe 103d 8a0d 89bd
00000320: 3ca5 973e d157 8d3e 38f1 93be cdc7 04bf
00000330: 5592 ce3e 8c56 593a 8e67 03bf 857f 513d
00000340: 4210 f6be 378c 1b3f 85f2 003f d953 0dbe
00000350: 4602 4e3c f9c4 6cbd 0130 b2be 6db0 bf3c
00000360: 6d48 7f3d 3375 50be b395 fe3e cad0 36be
00000370: 60b7 be3d 4b55 c43e cdf1 d9bd 397f 3d3e
00000380: 3740 2fbe 7b37 6bbe bf3f 593e 9390 a5bd
00000390: d14f 1cbf 4fe6 093f a68a 0a3e 201c 9d3e
000003a0: 61c8 c53d a05f e5be 243b 9d3e 15df 073f
000003b0: b1c8 53be 3a89 053f c0ce c93e 4fd4 41be
000003c0: 0ec3 5fbe 0a42 223f 9854 15bd f227 b5be
000003d0: 7ad2 d63d 8223 ddbd cab2 9cbe 60a7 14bf
000003e0: c018 c8be 3e2d bd3d be9a 2dbd dc6a b1be
000003f0: 090b 6d3d 9ff4 d0be ba7f 04bf 74af 8cbe
0.12264701 0.04943237 0.48199058 0.9633441 -0.045283318 0.66540134 0.09984078 0.13484229
0.06184044 0.30373994 0.12559095 -0.052740693 -0.15793467 -0.051625583 0.2535541 -0.49075153
-0.06643125 -0.03263697 -0.09630159 -0.39276537 0.1153088 0.38394246 -0.45057058 -0.14943355
-0.6080734 -0.031293526 -0.13129896 -0.29744366 -0.42771596 0.42218485 0.6107878 -0.0039852755
-0.36861446 0.41526824 -0.32544833 -0.16766413 0.09744609 -0.41476542 -0.12989128 0.052747767
-0.014856037 -0.0019157872 -0.7105684 0.2200502 0.2898187 -0.12122823 0.050440323 -0.2747686
0.89679486 -0.14442618 -0.3435387 0.20592003 -0.06800628 -0.2773585 0.33241 0.028436547
0.3244484 -0.07745348 -0.5509095 -0.21962579 -0.25060883 -0.15703444 0.04590694 0.15229769
0.4634876 0.28631365 -0.19772284 -0.24929282 -0.30921263 0.43445894 -0.016658526 -0.14872152
0.0817937 0.0993264 0.04636388 -0.17586334 0.5164459 0.04244972 0.44701746 -0.35488802
0.0397825 -0.4070881 -0.2213318 -0.28294596 0.56726223 -0.46410033 0.12167648 -0.043490946
-0.3393074 -0.05807671 0.5095305 -0.39501685 0.2963692 -0.23383556 -0.19933152 0.045393266
0.15733153 -0.316807 -0.25610968 0.00287639 0.28679654 0.17093125 -0.2688664 -0.42094392
0.25463614 -0.076062895 0.50579756 -0.16531496 -0.38207597 -0.28769305 0.36618215 0.037304528
-0.1067405 0.11000558 -0.42672783 -0.50344163 -0.09138243 0.0009277719 0.4909864 -0.003649731
-0.019956654 -0.55669284 -0.049947947 0.31143582 -0.369453 0.2795751 -0.15156278 0.16152681
0.8044343 -0.21480289 -0.22519395 0.1788503 0.44695312 0.4629873 -0.3869002 0.1315145
-0.28698814 0.76943105 -0.00078488793 0.03317796 -0.48486888 -0.70159054 -0.4108439 -0.0321459
0.11591294 -0.007678936 0.10360338 -0.3638701 0.19577214 -0.13618325 -0.15670438 -0.24696414
0.18713959 0.03270178 -0.2288725 -0.233699 -0.4295468 -0.0053251428 -0.4018394 -0.19986172
-0.024832262 -0.06401634 -0.018325888 0.012064707 -0.25479105 -0.328382 -0.1370538 0.28123432
-0.23938377 0.20265478 0.028836748 0.31165624 0.797334 -0.13214983 0.13748941 -0.19576617
-0.2778512 -0.11225756 0.04942553 -0.24089058 -0.27048877 0.15289831 -0.21850851 -0.04960958
-0.18830732 -0.36281878 -0.21859421 -0.448376 -0.017607445 -0.16017821 -0.053036805 0.8314448
0.8281916 0.3153892 -0.2285783 -0.010408567 0.298252 -0.30644327 0.035398655 -0.066920355
0.2961825 0.2760606 -0.28894973 -0.5186737 0.40346017 0.00082907896 -0.51329887 0.051147003
-0.4805928 0.60760826 0.50370055 -0.13801517 0.012573784 -0.057805035 -0.3480225 0.023399556
0.06232493 -0.20357208 0.49723586 -0.17853084 0.0931232 0.38346323 -0.10641823 0.18505563
-0.1711434 -0.22970383 0.21215723 -0.08084216 -0.6105929 0.5386705 0.13529453 0.3068552
0.0965736 -0.4479952 0.30709183 0.5307477 -0.20682026 0.52162516 0.3941555 -0.18928646
-0.21851751 0.6338202 -0.036457628 -0.35382038 0.10489364 -0.10797788 -0.30605155 -0.58067894
-0.39081383 0.09237145 -0.0423839 -0.3465184 0.057871852 -0.4081163 -0.51757395 -0.2747761

3.bias f4 [7]
00000000: 6f8b 3bbd c5d1 bcbe 6ed7 c9be 2018 b3be
00000010: 808e f1be 52a1 50be 6982 f13f
-0.04578727 -0.3687879 -0.39422172 -0.34979343 -0.4717903 -0.20374039 1.8867923
